…
==========================================
Using device: cuda
GPU: NVIDIA A100-SXM4-40GB
GPU Memory: 42.41 GB

============================================================
Loading CIFAR-10 Dataset
============================================================
Files already downloaded and verified
Files already downloaded and verified
Training samples: 50000
Validation samples: 10000
Training batches: 390
Validation batches: 79

============================================================
Creating Model
============================================================
ConvNeXtV2Tiny(
  (stem): Sequential(
    (0): Conv2d(3, 64, kernel_size=(3, 3), stride=(1, 1), padding=(1, 1))
    (1): LayerNorm2d()
    (2): GELU(approximate='none')
  )
  (stages): ModuleList(
    (0): Sequential(
      (0): ConvNeXtBlock(
        (dwconv): Conv2d(64, 64, kernel_size=(7, 7), stride=(1, 1), padding=(3, 3), groups=64)
        (norm): LayerNorm2d()
        (pwconv1): Conv2d(64, 256, kernel_size=(1, 1), stride=(1, 1))
        (act): GELU(approximate='none')
        (grn): GRN()
        (pwconv2): Conv2d(256, 64, kernel_size=(1, 1), stride=(1, 1))
        (drop_path): DropPath()
      )
      (1): ConvNeXtBlock(
        (dwconv): Conv2d(64, 64, kernel_size=(7, 7), stride=(1, 1), padding=(3, 3), groups=64)
        (norm): LayerNorm2d()
        (pwconv1): Conv2d(64, 256, kernel_size=(1, 1), stride=(1, 1))
        (act): GELU(approximate='none')
        (grn): GRN()
        (pwconv2): Conv2d(256, 64, kernel_size=(1, 1), stride=(1, 1))
        (drop_path): DropPath()
      )
      (2): ConvNeXtBlock(
        (dwconv): Conv2d(64, 64, kernel_size=(7, 7), stride=(1, 1), padding=(3, 3), groups=64)
        (norm): LayerNorm2d()
        (pwconv1): Conv2d(64, 256, kernel_size=(1, 1), stride=(1, 1))
        (act): GELU(approximate='none')
        (grn): GRN()
        (pwconv2): Conv2d(256, 64, kernel_size=(1, 1), stride=(1, 1))
        (drop_path): DropPath()
      )
    )
    (1): Sequential(
      (0): ConvNeXtBlock(
        (dwconv): Conv2d(128, 128, kernel_size=(7, 7), stride=(1, 1), padding=(3, 3), groups=128)
        (norm): LayerNorm2d()
        (pwconv1): Conv2d(128, 512, kernel_size=(1, 1), stride=(1, 1))
        (act): GELU(approximate='none')
        (grn): GRN()
        (pwconv2): Conv2d(512, 128, kernel_size=(1, 1), stride=(1, 1))
        (drop_path): DropPath()
      )
      (1): ConvNeXtBlock(
        (dwconv): Conv2d(128, 128, kernel_size=(7, 7), stride=(1, 1), padding=(3, 3), groups=128)
        (norm): LayerNorm2d()
        (pwconv1): Conv2d(128, 512, kernel_size=(1, 1), stride=(1, 1))
        (act): GELU(approximate='none')
        (grn): GRN()
        (pwconv2): Conv2d(512, 128, kernel_size=(1, 1), stride=(1, 1))
        (drop_path): DropPath()
      )
      (2): ConvNeXtBlock(
        (dwconv): Conv2d(128, 128, kernel_size=(7, 7), stride=(1, 1), padding=(3, 3), groups=128)
        (norm): LayerNorm2d()
        (pwconv1): Conv2d(128, 512, kernel_size=(1, 1), stride=(1, 1))
        (act): GELU(approximate='none')
        (grn): GRN()
        (pwconv2): Conv2d(512, 128, kernel_size=(1, 1), stride=(1, 1))
        (drop_path): DropPath()
      )
    )
    (2): Sequential(
      (0): ConvNeXtBlock(
        (dwconv): Conv2d(256, 256, kernel_size=(7, 7), stride=(1, 1), padding=(3, 3), groups=256)
        (norm): LayerNorm2d()
        (pwconv1): Conv2d(256, 1024, kernel_size=(1, 1), stride=(1, 1))
        (act): GELU(approximate='none')
        (grn): GRN()
        (pwconv2): Conv2d(1024, 256, kernel_size=(1, 1), stride=(1, 1))
        (drop_path): DropPath()
      )
      (1): ConvNeXtBlock(
        (dwconv): Conv2d(256, 256, kernel_size=(7, 7), stride=(1, 1), padding=(3, 3), groups=256)
        (norm): LayerNorm2d()
        (pwconv1): Conv2d(256, 1024, kernel_size=(1, 1), stride=(1, 1))
        (act): GELU(approximate='none')
        (grn): GRN()
        (pwconv2): Conv2d(1024, 256, kernel_size=(1, 1), stride=(1, 1))
        (drop_path): DropPath()
      )
      (2): ConvNeXtBlock(
        (dwconv): Conv2d(256, 256, kernel_size=(7, 7), stride=(1, 1), padding=(3, 3), groups=256)
        (norm): LayerNorm2d()
        (pwconv1): Conv2d(256, 1024, kernel_size=(1, 1), stride=(1, 1))
        (act): GELU(approximate='none')
        (grn): GRN()
        (pwconv2): Conv2d(1024, 256, kernel_size=(1, 1), stride=(1, 1))
        (drop_path): DropPath()
      )
      (3): ConvNeXtBlock(
        (dwconv): Conv2d(256, 256, kernel_size=(7, 7), stride=(1, 1), padding=(3, 3), groups=256)
        (norm): LayerNorm2d()
        (pwconv1): Conv2d(256, 1024, kernel_size=(1, 1), stride=(1, 1))
        (act): GELU(approximate='none')
        (grn): GRN()
        (pwconv2): Conv2d(1024, 256, kernel_size=(1, 1), stride=(1, 1))
        (drop_path): DropPath()
      )
      (4): ConvNeXtBlock(
        (dwconv): Conv2d(256, 256, kernel_size=(7, 7), stride=(1, 1), padding=(3, 3), groups=256)
        (norm): LayerNorm2d()
        (pwconv1): Conv2d(256, 1024, kernel_size=(1, 1), stride=(1, 1))
        (act): GELU(approximate='none')
        (grn): GRN()
        (pwconv2): Conv2d(1024, 256, kernel_size=(1, 1), stride=(1, 1))
        (drop_path): DropPath()
      )
      (5): ConvNeXtBlock(
        (dwconv): Conv2d(256, 256, kernel_size=(7, 7), stride=(1, 1), padding=(3, 3), groups=256)
        (norm): LayerNorm2d()
        (pwconv1): Conv2d(256, 1024, kernel_size=(1, 1), stride=(1, 1))
        (act): GELU(approximate='none')
        (grn): GRN()
        (pwconv2): Conv2d(1024, 256, kernel_size=(1, 1), stride=(1, 1))
        (drop_path): DropPath()
      )
      (6): ConvNeXtBlock(
        (dwconv): Conv2d(256, 256, kernel_size=(7, 7), stride=(1, 1), padding=(3, 3), groups=256)
        (norm): LayerNorm2d()
        (pwconv1): Conv2d(256, 1024, kernel_size=(1, 1), stride=(1, 1))
        (act): GELU(approximate='none')
        (grn): GRN()
        (pwconv2): Conv2d(1024, 256, kernel_size=(1, 1), stride=(1, 1))
        (drop_path): DropPath()
      )
      (7): ConvNeXtBlock(
        (dwconv): Conv2d(256, 256, kernel_size=(7, 7), stride=(1, 1), padding=(3, 3), groups=256)
        (norm): LayerNorm2d()
        (pwconv1): Conv2d(256, 1024, kernel_size=(1, 1), stride=(1, 1))
        (act): GELU(approximate='none')
        (grn): GRN()
        (pwconv2): Conv2d(1024, 256, kernel_size=(1, 1), stride=(1, 1))
        (drop_path): DropPath()
      )
      (8): ConvNeXtBlock(
        (dwconv): Conv2d(256, 256, kernel_size=(7, 7), stride=(1, 1), padding=(3, 3), groups=256)
        (norm): LayerNorm2d()
        (pwconv1): Conv2d(256, 1024, kernel_size=(1, 1), stride=(1, 1))
        (act): GELU(approximate='none')
        (grn): GRN()
        (pwconv2): Conv2d(1024, 256, kernel_size=(1, 1), stride=(1, 1))
        (drop_path): DropPath()
      )
    )
  )
  (downsamples): ModuleList(
    (0): Downsample(
      (norm): LayerNorm2d()
      (conv): Conv2d(64, 128, kernel_size=(2, 2), stride=(2, 2))
    )
    (1): Downsample(
      (norm): LayerNorm2d()
      (conv): Conv2d(128, 256, kernel_size=(2, 2), stride=(2, 2))
    )
  )
  (head): Sequential(
    (0): AdaptiveAvgPool2d(output_size=1)
    (1): Flatten(start_dim=1, end_dim=-1)
    (2): LayerNorm1d()
    (3): Linear(in_features=256, out_features=10, bias=True)
  )
)

Total parameters: 5,569,802
==================================================
Model Complexity Analysis
==================================================
MACs: 543.558M
FLOPs: 1.087G
Parameters: 5.537M
==================================================
wandb: [wandb.login()] Loaded credentials for https://api.wandb.ai from WANDB_API_KEY.
wandb: Currently logged in as: saupriyadip571 (saupriyadip571-indian-institute-of-technology-jodhpur) to https://api.wandb.ai. Use `wandb login --relogin` to force relogin
…
